Neural_network_models/neural_network_model.pth (torch, 16913 bytes, 7 tensors)

fc1.weight f4 [64, 13]
000000 a7 90 07 bf a8 05 9d be 9d 7d d7 be 59 15 2b bf
       -0.52955097 -0.30668378 -0.42088023 -0.6682945
000010 ce eb 0a be 7a 73 69 be b2 9a 85 be 6c 17 ff be
       -0.13566515 -0.22797957 -0.26094586 -0.49822557
000020 fb f6 fc be 20 76 5b be 15 fc f0 be 91 ca 26 bf
       -0.4940718 -0.2143178 -0.47067323 -0.6515284
000030 23 6c f2 be b3 fe 95 3e 16 e5 07 bd 05 36 25 bc
       -0.47348127 0.29295883 -0.033177458 -0.01008368
000040 28 01 1a bd 17 6a 18 be ea 4c f9 be 05 7f 5d 3e
       -0.03759876 -0.1488422 -0.48691493 0.21630485
000050 2d 06 03 be cb 80 e9 be a4 e7 60 bf b2 d8 35 bd
       -0.12795325 -0.45606074 -0.87853456 -0.04439611
000060 3a 41 f3 3b 7b 88 58 bc 42 b4 16 bf 70 03 7c be
       0.007423547 -0.013216133 -0.588688 -0.24610686
000070 61 2a 81 be 36 64 70 bf 0f 3c 58 bf f6 40 94 be
       -0.25227645 -0.9390291 -0.8446664 -0.2895581
000080 6e 90 c7 be ee cf 85 be 12 cd 0a bf bd 44 ff ba
       -0.3897738 -0.261352 -0.5421916 -0.0019475442
000090 a2 ba 80 bf 8a ab 6b bf 2b 2e 8b bf 50 b4 76 bf
       -1.0056956 -0.9205862 -1.0873464 -0.96368885
0000a0 f2 5d 68 be f1 83 cb bf 91 7c 7f bf c8 1c f9 bf
       -0.22692087 -1.589964 -0.9979945 -1.9461908
0000b0 b2 da 3c bf 2c 08 e2 be 54 51 76 bf a1 22 36 bf
       -0.737712 -0.4414686 -0.96217847 -0.7114659
0000c0 6c a1 d5 3e 62 25 07 c0 58 ba d5 bf 62 00 e1 bf
       0.41724718 -2.1116567 -1.6697493 -1.7578242
0000d0 0d 88 53 bf f0 d8 a9 be 69 45 0d bf 47 23 fc 3e
       -0.8262947 -0.33173323 -0.55184036 0.49245664
0000e0 b4 0f 63 3e 37 e3 c6 bf 17 5a 72 bf 32 09 0f c0
       0.22173959 -1.553809 -0.94668716 -2.2349362
0000f0 b3 26 f2 bf c7 31 4e bf a2 94 d2 3d b2 3d 6b bd
       -1.891806 -0.80544704 0.10282256 -0.057431884
000100 45 f1 9d 3e 02 5f f5 be 30 e7 03 bf a7 b0 95 bf
       0.30848137 -0.47924048 -0.5152464 -1.1694535
000110 ec 08 9b bf bf 7c a4 bf 94 99 f0 be 64 3f 17 bf
       -1.2112098 -1.285057 -0.4699217 -0.590811
000120 31 7d 8b bf ea 33 6a bf 25 c0 9a be 0b ba 92 bf
       -1.089758 -0.91485465 -0.3022472 -1.1463026
000130 cc b4 ab bf 09 c9 bd bf 68 b5 fc 3e 79 cd 93 3f
       -1.341455 -1.4826976 0.49357152 1.154708
000140 fb 48 f2 3e 2b 6e 34 3e 5a da a0 3d 32 b4 aa 3e
       0.47321305 0.1762015 0.07854147 0.33340603
000150 d1 59 10 3f f5 ba 36 3f d7 8f 23 3f 9e 8d 35 bf
       0.5638705 0.71379024 0.6389136 -0.70919216
000160 dc 7d a6 3e 4e 1a 69 3e 86 5a 44 3e ee e1 74 be
       0.32517898 0.2276394 0.19175157 -0.2391431
000170 7e 2d 44 bb f9 10 e5 be c5 63 66 bc 19 67 27 bc
       -0.0029934342 -0.44739512 -0.014061873 -0.0102174515
000180 85 de e3 be 76 fb 4d be ba 46 1d bd 78 20 28 3d
       -0.44505706 -0.20115456 -0.03839753 0.04104659
000190 e8 79 15 3d ec 17 c0 be 3d 4b d1 3c fe 93 4b 3d
       0.036493212 -0.3751825 0.025548572 0.049701683
0001a0 a0 4b c8 be fb 33 b5 be df 44 aa be ac b2 a3 be
       -0.39120197 -0.3539122 -0.3325567 -0.31972253
0001b0 c3 ba 1c be d5 74 13 bf d2 79 80 be b9 fd 00 bf
       -0.15305619 -0.57600147 -0.25092942 -0.5038715
0001c0 08 52 b0 be 9e fe c7 bd 81 ec d3 be 07 db fb be
       -0.34437585 -0.09765361 -0.41391376 -0.49190542
0001d0 66 d6 84 be 40 48 be 3e a0 b0 39 3f aa 4c 1b 3f
       -0.25944823 0.37164497 0.72535133 0.60663855
0001e0 2c a3 2c 3f 21 40 dc 3e 92 95 6c 3f ad 2b 54 3e
       0.6743648 0.43017676 0.92415726 0.20719786
0001f0 2c 6c 2b 3f 7f 9a 23 3f 0b 11 2c 3f c6 d0 bc 3e
       0.6696193 0.6390762 0.67213506 0.36878031
000200 d9 51 63 3f 9a 71 e0 3e 27 31 42 3e 8b 9c 5f be
       0.88796765 0.4383667 0.18964063 -0.2183706
000210 3d 42 72 bd 2f f5 90 be 7d 5a a3 bc ba 4c a5 bd
       -0.0591452 -0.2831206 -0.01994061 -0.08071275
000220 d6 f8 d5 3e 49 94 42 3e 37 4f b1 bd e1 f3 2a 3e
       0.4179141 0.19001879 -0.08657687 0.16694595
000230 24 c2 7f be b6 6b ef 3d d4 ec f8 bc aa 8d 62 be
       -0.24976403 0.11690466 -0.030386366 -0.22124353
000240 c8 9f 1c bf 25 9f 36 bf e9 bb a6 be 75 46 1b bf
       -0.61181307 -0.71336585 -0.3256524 -0.60654384
000250 4c 76 d8 be c8 63 44 bf 9f a6 0d bf 10 82 1b bf
       -0.42277753 -0.76714754 -0.5533237 -0.60745335
000260 4c 16 bc be fd ea d9 be 4a 50 28 bf 6a 09 33 bf
       -0.3673576 -0.42562094 -0.6574751 -0.6993624
000270 80 79 8c be 45 71 08 bf fe 83 07 bf 5e d4 11 bf
       -0.27436447 -0.53297836 -0.5293578 -0.5696467
000280 0b 4f 25 bf 83 ad 23 bf 4c 77 03 bf 4b 50 b0 be
       -0.64573735 -0.6393663 -0.5135391 -0.3443626
000290 b2 59 2d bf dc e0 92 be e2 54 82 be 0b 48 eb be
       -0.6771499 -0.2868718 -0.25455385 -0.45953402
0002a0 d5 da 11 be 5c 8b 16 bd 03 ec 22 3e ac 86 4e bc
       -0.14243634 -0.036753997 0.15910344 -0.01260535
0002b0 60 42 b8 3d d1 5c 93 3e 6d ad 80 3e cd 5e a8 3e
       0.08997035 0.2878175 0.25132313 0.32884827
0002c0 cc a4 19 bd 22 57 bd 39 59 c5 af 3e 47 12 42 3e
       -0.03751068 0.00036113808 0.34330252 0.18952285
0002d0 37 1e 52 3e d9 7e d8 3c f2 9d 20 bf 87 df 10 bf
       0.20519339 0.026427673 -0.62741005 -0.56591076
0002e0 24 35 ed be 01 75 00 bf 20 da c9 be 57 b1 0e bf
       -0.46329606 -0.50178534 -0.3942423 -0.5573935
0002f0 ec 3e 5e be c4 b0 72 bf ff 38 ca be 8f 5d a1 be
       -0.2170369 -0.9480097 -0.3949661 -0.31516692
000300 a9 19 97 be 9a 39 30 bf c1 ab 3e bf 6a 4e 39 bf
       -0.29511765 -0.68837893 -0.74480826 -0.72385275
000310 30 df 35 bf d4 b6 46 bf 49 7f 05 bf 4f cd 0e bf
       -0.7104368 -0.77622724 -0.52147347 -0.55782026
000320 cd c7 ca be 96 60 15 be 0c 89 45 bf bd 6d 77 bf
       -0.3960556 -0.14587626 -0.7716224 -0.9665182
000330 66 0d a0 be 06 27 fc be 05 cd 1f bf 0e 94 67 bf
       -0.31260222 -0.49248523 -0.6242221 -0.9046029
000340 66 7a ab be 43 4b 24 bf 8c 38 91 be 32 c9 ed be
       -0.3349182 -0.6417734 -0.28363454 -0.46442562
000350 3b b9 05 bf 1c 62 92 be 84 15 19 bf 12 6d c4 be
       -0.52235764 -0.28590477 -0.59798455 -0.38364464
000360 2b c3 02 bf a4 11 4e be 89 be 98 be 15 56 b6 be
       -0.5107905 -0.20123917 -0.29832867 -0.3561255
000370 93 5f 88 be 78 23 5b bf 5c 7a 2c bf c0 ed 89 bf
       -0.26635417 -0.85600996 -0.67374206 -1.077568
000380 ce b4 b5 bf 0e 03 d0 bf fe d7 dd be 87 55 68 be
       -1.4195802 -1.6250932 -0.4332885 -0.22688876
000390 e7 49 32 bf 62 aa 3b bf 9b b5 9a 3e f0 f8 b1 bf
       -0.69644016 -0.7330686 0.3021668 -1.3904095
0003a0 74 a0 9b bf e2 a2 cd bf 6b f2 8e 3e c8 67 df bd
       -1.2158341 -1.6065333 0.27919325 -0.109084666
0003b0 a8 ba 20 bf b8 44 14 bf 41 03 37 3c 10 f6 07 3d
       -0.62784815 -0.57917356 0.011170209 0.033193648
0003c0 12 18 cf 3e 12 b9 7c 3e ee d5 4f be 11 a9 25 3e
       0.40448052 0.24679974 -0.20296451 0.16177775
0003d0 1c 5d c3 be dc 27 a7 3d 67 4d 6a 3c 28 c9 62 be
       -0.38156974 0.081618994 0.014300681 -0.22147048
0003e0 ee 9e 67 bf ef 84 21 bd cb d1 fa bd 70 d8 3e be
       -0.9047688 -0.039433416 -0.12247046 -0.18637252
0003f0 c9 c8 7c bf f2 72 53 bf b6 8a 5b bf a7 13 5c bf
       -0.98743874 -0.8259727 -0.8575853 -0.8596749

fc1.bias f4 [64]
000000 28 80 2c bf 85 34 e7 be 67 70 07 be 33 a4 75 bf
       -0.6738305 -0.45157257 -0.13226472 -0.95953673
000010 34 26 f1 bf 26 7c 33 bf 51 3f 4f 3f e6 86 12 be
       -1.8839784 -0.7011131 0.8095599 -0.14309272
000020 d2 7c 33 be 78 55 5d 3f 2a 6e a1 bd 52 90 ba be
       -0.17528084 0.8645854 -0.0788234 -0.36438233
000030 c6 00 12 bf 3d a5 1d be 13 23 1a bf 6f a7 43 bf
       -0.5703243 -0.15395065 -0.6020977 -0.7642736
000040 29 20 a0 be be 63 a9 be ba ee 86 3e 49 f0 3c bf
       -0.31274536 -0.3308391 0.2635401 -0.73804146
000050 1d 05 00 bf 5c f4 14 be 55 d7 c9 be 31 b5 1f bf
       -0.500078 -0.1454634 -0.39422098 -0.6238585
000060 cb 0b c8 bd 5c 5f bc bf 92 e1 bc be d2 a8 22 bf
       -0.09767874 -1.4716601 -0.36890846 -0.6353885
000070 82 10 f1 be 07 00 c5 be 26 11 9b be f6 24 0a c0
       -0.47082907 -0.38476583 -0.3028652 -2.158506
000080 fb a5 0b bf 0b 01 86 be bb a7 0b bf ad 47 1e 3f
       -0.5455014 -0.2617267 -0.5455281 0.6182812
000090 61 3d 3d 3e b7 06 7c be 54 ab 11 be 73 8f 80 3e
       0.18480445 -0.24611937 -0.14225513 0.25109443
0000a0 b2 80 ad bf a7 bb 52 be bb 80 4b bf 49 99 5a be
       -1.35549 -0.20579396 -0.794933 -0.21347536
0000b0 84 5d 48 bf 92 05 7a be 20 7c 15 c0 e7 75 06 bf
       -0.78267694 -0.24416187 -2.335701 -0.52523655
0000c0 0c 3e 3a bf b2 66 a7 3d 21 40 ab bd 64 15 eb be
       -0.72750926 0.081738845 -0.08361841 -0.45914757
0000d0 e8 5d 5c 3f 59 34 18 bf 7d 9a c6 be cc 09 25 bf
       0.8608079 -0.59454876 -0.3878974 -0.64468074
0000e0 31 c2 c4 3d 81 9b a0 be 1f a8 4b 3e 14 d1 d1 3d
       0.096073516 -0.3136864 0.19888352 0.102449566
0000f0 25 94 ad be 03 5f 78 bf 64 d5 7d be 05 c7 7d bf
       -0.33902088 -0.97019976 -0.24788433 -0.99131805

fc2.weight f4 [32, 64]
000000 ff d1 64 3c e0 57 f6 bd 16 13 f8 bc 39 c4 8a bc
       0.013966083 -0.120284796 -0.030282538 -0.01693927
000010 70 0f 3d 3d a8 5a b3 bd 43 4c ac bd a8 c9 e9 bd
       0.0461573 -0.08757526 -0.08412983 -0.11415416
000020 1e 98 98 bd 88 71 74 bd 3c 77 1e 3d 0a 96 37 be
       -0.07450889 -0.059678584 0.03868793 -0.17928329
000030 b1 a7 17 bd fc 40 29 be b8 4e 3b be 34 dd 30 3d
       -0.037025157 -0.16528696 -0.18291748 0.043179706
000040 c8 9b 3c bd f8 37 dd bd c8 fa aa 3d 10 22 38 bd
       -0.046047002 -0.10801691 0.08348614 -0.04495436
000050 a4 b7 b4 bd bc 19 c2 bc 38 e0 59 bd 84 a1 13 3c
       -0.08824089 -0.023693912 -0.053192347 0.009010676
000060 cf 0d 04 3d b8 ac bd bc 68 35 e8 bd 27 1e 3c 3d
       0.03223973 -0.023153648 -0.113383114 0.045927193
000070 d2 a3 a7 3d 1c b0 db 3c 39 95 ca bc 98 ad 59 bd
       0.08185543 0.026817374 -0.024729358 -0.053144068
000080 f5 b1 ba bd 5c a4 de 3d aa 53 62 bd 00 d7 3d 3d
       -0.09115974 0.10871193 -0.05525557 0.046347618
000090 57 88 ff bc 8a d6 ba bd 66 09 41 be 3d ec dc bc
       -0.031192942 -0.09122951 -0.18851241 -0.026968116
0000a0 e8 cd b1 3d 0a 22 39 be 88 69 cf bd 38 76 39 be
       0.086818516 -0.18079391 -0.1012755 -0.18111503
0000b0 55 9c 29 3d 7b 77 cb 3c 80 cc 51 3d 40 45 0f bb
       0.041408855 0.024837246 0.051220417 -0.0021861345
0000c0 15 ee 11 bd 00 f9 22 bc 9b c9 45 bd 6d 89 0d be
       -0.035627443 -0.009947062 -0.04828797 -0.13821955
0000d0 b4 27 b6 3d 96 77 e8 bd 59 32 5b 3d 28 09 f5 bd
       0.088942915 -0.11350934 0.053514812 -0.11964637
0000e0 16 ea aa bd 2c a4 35 3d e5 dc 39 bd 45 f2 57 bd
       -0.083454296 0.04434602 -0.045376677 -0.05272128
0000f0 ab 9a 13 be aa e1 e7 bd b8 11 00 bd a0 1b 26 3d
       -0.1441447 -0.11322339 -0.031266898 0.04055369
000100 d1 cf 2c bd 62 dc b3 bd b0 e6 22 3d dc fb 74 3d
       -0.042190377 -0.08782269 0.039770782 0.059810504
000110 14 07 ef bd 04 48 e5 ba c3 38 20 be 36 af 03 3d
       -0.11671272 -0.0017492776 -0.15646653 0.032149516
000120 0a d9 ff ba 40 c0 16 3d 78 82 1f be 12 8c de bd
       -0.0019519639 0.036804438 -0.15577114 -0.1086656
000130 2c af 5f bd 40 9f 08 be 65 5a 0b bd e0 dd a1 3c
       -0.054610416 -0.13341999 -0.034021754 0.019759119
000140 0a e1 af bd b6 52 c7 3d fc e3 cc 3d 94 fc b7 3d
       -0.08587845 0.09732573 0.10004422 0.08983722
000150 da e7 89 bd b9 9b 18 be f0 57 60 bd 08 d7 25 3d
       -0.06733675 -0.14903153 -0.054771364 0.040488273
000160 d9 bc 25 be cc 7e 4b bd 4f 89 aa 3b 40 d5 ff bc
       -0.16185321 -0.04968147 0.0052043567 -0.031229615
000170 e8 11 2a bd c9 32 88 bd b3 b2 04 bc c0 eb 16 bd
       -0.041520983 -0.066503115 -0.008099246 -0.036845922
000180 c8 0a 31 bd 70 73 2e 3c d0 8b f2 3c ec d6 4f bd
       -0.043223172 0.01064764 0.029607683 -0.050742075
000190 da 13 fa bc 70 5c 7a 3d c6 d9 26 3d 5d 6f c3 3c
       -0.030527044 0.06112331 0.04073503 0.023856813
0001a0 56 66 d7 3d c1 a9 1b be d0 4e 91 bd ef 81 e4 3c
       0.10517566 -0.15201475 -0.070951104 0.027893988
0001b0 40 d7 f7 3d 60 82 ea bc 6e 29 84 bd 94 36 7e 3d
       0.121016026 -0.02862662 -0.064532146 0.06206377
0001c0 3e 84 e9 3d 1a dd eb bd e0 ee 84 bd 98 3b 90 3d
       0.11402176 -0.11516781 -0.06490874 0.070426166
0001d0 12 14 bc 3d 15 65 b6 bd fd f9 09 be 2c 22 92 bd
       0.091835156 -0.089059986 -0.13474269 -0.07135424
0001e0 44 08 8d 3d 78 e1 1b 3d 31 5f ea bd 0a 81 9e bd
       0.06886342 0.03805682 -0.114439376 -0.07739456
0001f0 e3 12 f5 bd 9f e4 37 be d8 c5 99 3d e4 cf aa bd
       -0.11966493 -0.17958306 0.07508439 -0.08340433
000200 f4 21 57 bd 7c 3a 9f 3d 00 43 3f 3c 06 0c 31 be
       -0.052522615 0.07774827 0.011673689 -0.17289743
000210 1f b1 06 be c1 42 01 3e 68 e2 7e bd f8 20 82 be
       -0.13153504 0.12623121 -0.062227637 -0.25415778
000220 23 17 8f be 8e 88 75 be db 49 92 be 6b df 12 be
       -0.2794734 -0.23977873 -0.28571972 -0.1434304
000230 68 b0 f0 bc 2d a9 c6 bd 27 e3 d8 bd 77 58 ea 3d
       -0.029380992 -0.097002365 -0.10590201 0.114426546
000240 b8 5d 87 be 80 87 ff 3c 8b c3 88 be 18 1f 51 bd
       -0.2643869 0.031192541 -0.26711687 -0.051055044
000250 fb b1 1e be 56 2f 3f be 60 9c 14 3d dd c7 97 be
       -0.15497582 -0.18670401 0.036281943 -0.2964467
000260 8a 33 0f be ba 78 39 be 9e af 6c be 23 9c 9b be
       -0.13984504 -0.1811246 -0.23113868 -0.3039256
000270 80 55 91 be a3 10 48 be bc 9c d2 bd e5 f9 39 be
       -0.28385544 -0.19537596 -0.10283801 -0.18161733
000280 42 3c a2 be 00 c1 77 bb 32 59 ce 3d 00 88 b8 bb
       -0.31686598 -0.0037804246 0.100756064 -0.005631447
000290 f1 15 b3 bd c2 98 69 be 40 e9 9f bc 6b 23 83 be
       -0.08744419 -0.22812179 -0.019520402 -0.2561296
0002a0 67 e1 fd bd e0 83 81 bd 90 87 fa bd bc 8f 7c 3e
       -0.12396508 -0.06323981 -0.12232888 0.24664205
0002b0 a2 56 c7 bd f2 7f ae bd bd 96 d9 3d 7c 2e b7 3d
       -0.09733321 -0.085204974 0.10624454 0.08944413
0002c0 68 8b 63 3d ac 8a d8 bd 84 5e 7b be 12 ea 8f bd
       0.05555287 -0.105733246 -0.24547774 -0.07027067
0002d0 90 08 5d 3d db 16 97 be eb 19 e6 bd 92 40 8a be
       0.053963244 -0.29509625 -0.11235412 -0.27002388
0002e0 68 65 36 3d f0 0f 22 be e7 d9 8d bd e4 31 39 be
       0.044530302 -0.15826392 -0.06926327 -0.18085438
0002f0 c1 ba 18 be b6 fb 09 be 08 b0 ea bd 7c 67 53 be
       -0.14914991 -0.13474926 -0.114593565 -0.20644945
000300 cd dc f7 bd 2d a8 80 3c 26 47 5a bd c1 b5 98 3c
       -0.12102661 0.015705192 -0.05329051 0.018641355
000310 e9 db 16 3c 66 64 79 bd 59 cd b6 bd e9 d2 db bd
       0.009207704 -0.060886763 -0.08925886 -0.10733587
000320 2c 54 52 3c b4 ea 23 bd 53 7c 73 3c 93 c1 06 be
       0.012837451 -0.040018752 0.014861184 -0.1315978
000330 0a 36 13 be 2a e3 a5 3b 76 d4 41 3d 4b f3 2f 3d
       -0.14376083 0.0050624805 0.04732176 0.04295663
000340 dd 50 3c 3d 5d db 19 bd ab 1c 39 3c 44 79 5f bc
       0.045975555 -0.037562717 0.011298339 -0.013639752
000350 fa cd 1b 3d c3 d7 9b 3c 8e ed bd bd 57 9f 97 bd
       0.03803823 0.019023782 -0.092738256 -0.074034385
000360 8b 25 16 bd 26 03 ef 3b c5 a6 28 bd ba 26 96 3c
       -0.036656898 0.0072940765 -0.04117467 0.018329013
000370 38 30 88 bd 44 79 2e 3d 51 39 07 be cf 0e 83 3d
       -0.06649822 0.042596117 -0.13205458 0.06399309
000380 51 ef 04 be 32 74 db b8 a4 6e 59 bd 6c c1 99 3d
       -0.12981917 -0.00010464377 -0.05308403 0.075075954
000390 59 64 26 be 58 22 69 3d 8e fd 07 3d e4 88 76 bd
       -0.16249217 0.05691752 0.033200793 -0.060189143
0003a0 b1 a0 99 bd 03 cc 0c 3e 16 82 e9 bc 33 ce 5c bd
       -0.075013526 0.137497 -0.028504413 -0.053907584
0003b0 fb 39 3e 3c c6 79 82 3d 7c 21 d5 3a c6 66 19 bd
       0.011610503 0.06370883 0.001626059 -0.037451528
0003c0 c6 7c d6 bd ae 09 09 3e 31 a7 2d be d8 83 2c be
       -0.104730174 0.13382599 -0.1695831 -0.1684717
0003d0 b2 48 22 bc 47 33 28 be 7e 21 c3 bd 14 f1 45 3b
       -0.009905027 -0.16425811 -0.095278725 0.0030203508
0003e0 c0 5d 5d 3b a1 12 fb bd 1a 22 ff bd c7 7c 48 bd
       0.0033777803 -0.122594126 -0.12457676 -0.048947122
0003f0 b7 55 2a be be 78 43 bc 44 4a 96 bc b8 20 71 bd
       -0.1663426 -0.011930643 -0.01834596 -0.058869094

fc2.bias f4 [32]
000000 12 72 13 3d f1 9e 02 be 80 38 19 be c9 bc 83 bd
       0.035997458 -0.12755944 -0.1496296 -0.06432492
000010 d7 02 6e 3e 0b 14 ae be 9b 39 a5 bc 18 4c bc be
       0.23243271 -0.33999667 -0.02016907 -0.36776805
000020 86 ee 73 3d e4 00 4a be af 07 90 bd 1f 25 ca bc
       0.059553646 -0.19726902 -0.070327155 -0.024675904
000030 52 ef 23 be 24 7d d6 be 7c cb 5f be f0 22 80 be
       -0.16009262 -0.4189235 -0.21854967 -0.25026655
000040 61 01 1e 3c 84 f7 73 3c 07 87 0f be e8 28 49 3d
       0.009643883 0.014890555 -0.14016353 0.049111277
000050 4f 43 88 3b 4d cf e8 bd 48 ef 4a be 5b a3 29 3d
       0.0041584144 -0.113676645 -0.19817841 0.041415554
000060 6d 3f 6a be 94 1c 8f bd b5 16 ef bd 0d 98 89 be
       -0.22875758 -0.06987873 -0.11674253 -0.26873818
000070 99 04 5a bd 5c 3f 76 bd 04 ea 21 3d a5 12 1c 3d
       -0.05322704 -0.060119018 0.039529815 0.03810372

fc3.weight f4 [16, 32]
000000 72 ec 77 bc 51 8d 33 3e 9d f7 be 3d ce 42 27 3e
       -0.015132057 0.17534377 0.09324572 0.16334078
000010 36 90 7e 3e eb 20 11 be d7 e3 ca 3d 11 34 00 be
       0.248597 -0.14172713 0.09906738 -0.12519862
000020 43 46 3f bc dd bf b8 bd 16 04 02 be 36 81 a0 be
       -0.011674467 -0.0902097 -0.12696871 -0.3134858
000030 7f f1 b9 3d 57 22 44 be a4 10 01 be 49 5a 8f be
       0.09079265 -0.19153725 -0.12604004 -0.2799857
000040 c7 ea 0e 3d 27 2e cd 3e 4c 02 74 3e d5 c0 b0 bd
       0.03489187 0.40074274 0.23829001 -0.0863053
000050 3f c8 c1 bd da 20 43 bc 27 a4 55 be 58 5b 67 3e
       -0.09462022 -0.011909688 -0.208634 0.22593439
000060 b9 3d 28 be 4c 1d ac 3b 71 03 30 be 2c 37 31 be
       -0.16429795 0.005252516 -0.17188813 -0.17306203
000070 57 ca b4 bd 2e 53 1e be c1 88 47 3d 5b 64 1c 3e
       -0.08827656 -0.15461418 0.048714403 0.15272658
000080 e1 d0 c4 bb c4 50 48 3e aa ec c9 bd 98 3e c3 bb
       -0.0060063456 0.1956206 -0.09859593 -0.0059583895
000090 c2 cc a3 bc 0d 15 2f be d5 82 e7 3c f6 20 75 3d
       -0.019995097 -0.17097874 0.028260628 0.059845887
0000a0 04 02 a7 bd b5 93 07 be d8 9b c7 bd 15 58 15 be
       -0.08154681 -0.1323994 -0.09746522 -0.14584382
0000b0 1b 48 05 3d 5c d6 f7 3e 46 63 b8 be bb 05 16 3e
       0.03253947 0.4840573 -0.3601324 0.14650624
0000c0 77 93 39 3e 88 0c 6e be 90 4c 0a bf 46 f4 e1 3d
       0.1812266 -0.23246968 -0.54023075 0.110329196
0000d0 d3 73 3b 3e 8d 65 47 3e 97 6d cc 3d bf 6d 34 3e
       0.18305902 0.19472332 0.0998184 0.1761999
0000e0 a3 b3 9f bc b7 a2 fe bd bd 7a bd bd ab 5d a5 bd
       -0.019494837 -0.12433379 -0.09251926 -0.08074506
0000f0 d1 60 b8 3d e6 cb 9f 3d f7 54 39 3e b4 a6 bb 3d
       0.09002841 0.078025624 0.18098818 0.091626555
000100 14 f3 c8 3d f1 5e f4 3d 6d a2 42 3b 3f b3 c7 3d
       0.098119885 0.11932171 0.0029698864 0.09750985
000110 3c 05 7a be 03 d4 34 be 9e f9 af 3d 11 62 aa 3d
       -0.2441606 -0.17659001 0.085925326 0.08319486
000120 b9 42 39 3e 96 24 dd 3e 34 05 b1 3d 94 eb ae 3e
       0.18091859 0.43191975 0.086435705 0.34164107
000130 35 51 fa ba 80 63 30 be 72 01 d5 be 51 0c d7 3e
       -0.0019097688 -0.17225456 -0.41602665 0.42001584
000140 ce 74 32 3d c0 e0 99 be c0 04 6e bd 31 9b 88 3d
       0.043568425 -0.30054283 -0.05811 0.066702254
000150 5a da df 3c fc 72 27 3e 0a bc 03 3e ff c6 33 bd
       0.027325798 0.16352457 0.128647 -0.04389095
000160 7a 58 84 3e 64 0d 67 be b1 a4 6b b8 4e 80 e7 bd
       0.25848752 -0.22563702 -5.6181747e-05 -0.11303769
000170 22 34 3c 3d e9 30 12 3e 5a 74 b4 3d 8a 8f 2f bd
       0.045948155 0.1427647 0.08811255 -0.0428615
000180 d2 92 cc bd 21 ac 9f bc ed 30 2f 3e 25 d9 05 be
       -0.09988941 -0.019491257 0.17108507 -0.13071115
000190 4e 9b 20 3e 0b 42 be 3e f5 8d b8 bd 01 45 7c be
       0.15684244 0.37159762 -0.09011451 -0.24635698
0001a0 35 11 ba bd 41 fd bb bd 5a be cb bd e6 4e 76 be
       -0.09085313 -0.09179164 -0.09948416 -0.24053535
0001b0 46 27 0f be 10 74 2d be c6 1f b3 bd 6d f2 6c 3d
       -0.13979825 -0.16938806 -0.08746295 0.057848383
0001c0 63 a8 95 bc 90 e3 8a be 1f e3 cb bd 5b 60 20 be
       -0.01826877 -0.2712674 -0.09955429 -0.15661757
0001d0 1a b3 a7 3c 3c e0 05 be 6c 74 e5 3b 58 19 e8 3d
       0.020471144 -0.1307382 0.007002404 0.11332959
0001e0 06 10 1e be ba 15 8b 3d be 08 08 bd f9 13 d2 bd
       -0.154358 0.067912534 -0.033211462 -0.10257716
0001f0 50 69 e1 bc d4 18 7a bd 18 92 dd 3d 21 f7 15 be
       -0.027516037 -0.061058834 0.10818881 -0.14645053
000200 ba 77 ca 3d 45 c0 34 bd 5c 54 dc 3c f6 57 dd bd
       0.09886117 -0.044128675 0.026895694 -0.10807793
000210 ea 11 6d 3c 77 0b 36 be e1 bd 9c bd 79 cf 6d be
       0.014469603 -0.17777811 -0.07653404 -0.23223676
000220 30 f5 cc 3c c4 b7 f7 3c f1 a0 8a 3d 1c cd 61 be
       0.025019258 0.030238993 0.067689784 -0.220509
000230 22 a4 48 bd 3e b5 30 bd 44 c4 75 bd 37 7a a5 3d
       -0.048984654 -0.043141596 -0.060001627 0.08079951
000240 f2 2b be bd 88 d7 92 3d 15 e6 26 be 93 b5 1a be
       -0.09285726 0.071700156 -0.16298707 -0.15108328
000250 be b3 bd 3d 43 ba 0a be 0b a6 cd 3d 0c 5e 4d be
       0.09262799 -0.13547616 0.10041436 -0.20055407
000260 2a 79 64 be c0 d5 27 3d 2a 9b 9f 3d c8 ec 70 be
       -0.22311845 0.040975332 0.07793267 -0.23527825
000270 33 01 b3 3d 70 d2 11 3d c8 88 e0 bd 1e bb 3c 3d
       0.08740463 0.03560108 -0.10963589 0.046076886
000280 46 fd 94 bc 14 5a 73 3d a3 d3 88 3d a0 c1 1d bb
       -0.018187176 0.059412077 0.066809915 -0.0024071708
000290 da e8 4b 3d 08 12 15 be c7 11 c3 3c 7f 82 9c bd
       0.04978261 -0.1455766 0.023812188 -0.07642078
0002a0 f6 bb d6 3d 6e 1b c5 be 3f e8 a6 bd 0e 09 4b be
       0.104850695 -0.3849749 -0.08149766 -0.19827673
0002b0 e6 8e f2 3c f6 14 7a be 18 76 ca 3c c8 32 c3 3d
       0.029609155 -0.24422058 0.024714515 0.0953117
0002c0 c6 03 ed 3d ba ae 98 bb c8 e7 4f be 00 b6 01 be
       0.11572985 -0.004659501 -0.20303261 -0.12667084
0002d0 a3 26 e7 3d a2 9c b0 bd 5e 39 32 be 79 49 e9 3d
       0.11286666 -0.08623625 -0.17404696 0.11390967
0002e0 56 0e d0 3b 18 fa 90 3d ff ee 5a be 9c 6c 94 bd
       0.006349365 0.070789516 -0.21380232 -0.07247278
0002f0 5d 3f f3 3d 78 6d c4 bd 4d 31 5c 3d 32 5c 59 bd
       0.1187732 -0.09591192 0.053757954 -0.05306644
000300 9e b5 8e bd 59 e5 ea bc 27 bb ac bd 07 05 db 3d
       -0.069682345 -0.028673815 -0.08434134 0.10694318
000310 40 32 28 be 1d 6c 15 bd 1f f5 2c be ce a1 db bd
       -0.16425419 -0.036480058 -0.16890381 -0.10724221
000320 3e 44 84 3c 8e 30 d1 bb 14 7f 26 bd 63 57 a6 bc
       0.016145822 -0.006383962 -0.040648535 -0.020305341
000330 b7 32 4c bd 7e fd a0 be c3 ff 71 bd 97 4d 73 3c
       -0.049853053 -0.314434 -0.059081804 0.014850042
000340 35 5e 55 be 1e fc 84 3d 30 96 2a be b8 85 df bd
       -0.20836718 0.064934 -0.16658854 -0.10914177
000350 59 3f a2 bd 64 98 32 be 11 bb 07 3e ce 69 c6 3d
       -0.07922239 -0.17440945 0.13254954 0.096881494
000360 45 12 0c be c6 c1 36 3d b7 d4 07 be 50 9b f0 bd
       -0.13678844 0.04461839 -0.13264738 -0.117483735
000370 8d af 38 3d 57 cf bc 3d 3d 9a 05 bd 64 92 01 be
       0.045089293 0.092192344 -0.032617796 -0.126535
000380 11 7e 1a be 73 cb 52 bd ac 9d 32 be 1d b2 3a be
       -0.15087153 -0.051463556 -0.1744296 -0.18232007
000390 98 89 94 bd c9 a1 16 be 14 d5 64 be 5f b2 2b be
       -0.072528064 -0.14710154 -0.22346908 -0.16767262
0003a0 d0 71 84 3d d4 d8 f2 bd 61 0d 86 3d 8c aa 1d be
       0.064670205 -0.11857763 0.065455206 -0.1539709
0003b0 e1 ef b4 bb ee 50 a1 be a5 dc ad 3d d7 04 11 be
       -0.00552176 -0.31507057 0.0848935 -0.14162003
0003c0 79 51 68 bd f8 23 ce bd 17 3b 13 be bf 29 d6 3c
       -0.056718323 -0.10065454 -0.1437801 0.026142953
0003d0 62 98 84 bd 2e 63 2b bc ab 28 6e bd 1d 2c 86 bc
       -0.06474377 -0.010460658 -0.058144253 -0.016378457
0003e0 b7 9d 85 be 71 ab a9 3c 99 b2 eb 3d 77 da bb be
       -0.2609689 0.020711632 0.11508674 -0.36690113
0003f0 74 4c be bd b0 8b 1a be 97 1e e2 bd f5 80 d3 bd
       -0.09291926 -0.15092349 -0.11040991 -0.10327331

fc3.bias f4 [16]
000000 85 3e c5 be 40 c0 59 ba be 52 d4 ba 55 ac 3f bd
       -0.3852426 -0.00083065405 -0.0016198975 -0.046795208
000010 02 ad 7e 42 46 5d 87 be 98 c2 2c be ce e1 6e be
       63.668953 -0.2643835 -0.16871107 -0.23328325
000020 52 49 c0 bd ae e0 a4 be cd ef be be 8a 14 e1 be
       -0.09388985 -0.32202667 -0.37292328 -0.43960983
000030 57 72 35 be b9 f3 88 be 1e 5c 9c be f0 72 88 be
       -0.17719398 -0.26748446 -0.3053903 -0.2665019

fc4.weight f4 [1, 16]
000000 52 42 9c 3e 71 3c 11 be 40 0b 95 be 58 30 9b be
       0.30519348 -0.14183213 -0.29110146 -0.3031032
000010 cb 79 c0 3e 47 59 9c 3d 04 6f d9 3d 01 19 38 3c
       0.3759292 0.07634216 0.10616878 0.01123643
000020 93 96 81 3d 37 4a 20 3e 3f 19 72 3e b4 4f a8 3d
       0.06327548 0.1565331 0.23642443 0.08218327
000030 2c 1b 8e bd bd af 36 be 68 16 60 3e a2 a8 ef bd
       -0.069387764 -0.17840476 0.21883547 -0.11702086
